deliver/model.pth (torch_old, 88659 bytes, 8 tensors)

conv1.weight f4 [10, 1, 5, 5]
000000 a2 c7 96 3d 77 30 c7 bd 38 af e1 be 48 91 31 bf
       0.07362296 -0.09726041 -0.44078994 -0.69362307
000010 5b 89 83 be f9 f3 ae bd 93 40 c9 be c4 ef 47 3d
       -0.2569073 -0.08542628 -0.3930708 0.048812643
000020 a4 6a f3 3d ba 7f ab bd 8e b3 fb 3e d7 39 1f 3f
       0.118855745 -0.08373971 0.49160427 0.6219763
000030 be b1 1e 3f 97 62 03 3f aa 53 84 3e 7e 16 a9 bd
       0.61989963 0.5132231 0.2584508 -0.08256243
000040 a5 eb 74 3c e9 09 73 3d 04 e1 4c be 40 9e 6b be
       0.01494876 0.059335623 -0.20007712 -0.23009586
000050 b1 e7 8d be 9d 2e 04 bf 7e 72 4c bf fe 4b a8 be
       -0.2771583 -0.51633626 -0.798622 -0.32870477
000060 73 d1 e7 3e 90 30 66 bf 09 b8 bb be 37 46 b6 3d
       0.45276985 -0.8991785 -0.36663845 0.08900111
000070 1f 52 a2 be 13 85 b7 bd 6b f6 36 bf 9a 36 f9 be
       -0.31703278 -0.08960929 -0.71469754 -0.4867447
000080 89 4f 7c bf 19 47 8a bf 9b cc 1c bf f5 c2 e4 3e
       -0.9855886 -1.0802947 -0.61249703 0.4467999
000090 eb 30 d3 be 1f 61 1a be 9b 5d 99 be 21 f7 94 bf
       -0.4124826 -0.15076111 -0.29954228 -1.1637918
0000a0 18 5e ce 3e 54 1c 55 bc fa 6c ac 3e d3 5a 49 3d
       0.40306163 -0.013007242 0.33676893 0.049158882
0000b0 29 f1 45 bf 37 6c 06 3e 51 72 bc 3d d7 4f 93 3e
       -0.77321106 0.13127218 0.092014916 0.2877185
0000c0 36 e2 88 3e 10 0a c3 be 55 8e 8c be 09 4f 23 be
       0.26735085 -0.38093615 -0.2745234 -0.15948118
0000d0 4c ff 11 3e 4d c3 74 3e 9d 33 63 3e e4 3a a8 3e
       0.14257544 0.23902626 0.22187658 0.3285743
0000e0 f0 a3 5f 3e 9d 5a a8 3e 70 80 04 3f 71 10 1f bf
       0.21839881 0.32881632 0.5175848 -0.6213446
0000f0 9b b0 67 be 6a 8c 94 3d d9 59 e8 3e 48 94 3f bd
       -0.22625963 0.07253344 0.45381048 -0.04677227
000100 9a 87 58 bf c2 5c 76 bf e8 4f 95 be 69 b5 06 bf
       -0.8458191 -0.9623529 -0.29162526 -0.5262056
000110 aa 3f d8 bf d7 6c a9 be b7 9f 87 bf ae a3 8e bf
       -1.6894429 -0.3309085 -1.0595616 -1.1143701
000120 b9 33 a6 bf 8e fe 8d be a3 93 b8 3e 83 fd 4b 3e
       -1.2984535 -0.27733272 0.36050138 0.19920926
000130 2a f0 14 be b4 09 3a 3e 7e ef ce 3b e5 94 2c 3e
       -0.1454474 0.18167764 0.006315171 0.16853674
000140 c2 3a d3 3d ba da 4b be 1b 11 5e be f6 54 1c be
       0.103139415 -0.19907656 -0.21686213 -0.15266785
000150 88 88 bb 3e ae 6b 15 bd d7 ca 0c bf 53 98 89 be
       0.36627603 -0.036479644 -0.5499701 -0.26874027
000160 9d fe 87 3d 38 70 ef 3e 2c ec 57 bd cc 43 3a bf
       0.066403605 0.46765304 -0.052715465 -0.727597
000170 35 ce 25 bf 3e d9 17 3e 9e 3a 9d 3e 41 88 68 be
       -0.6476777 0.14828965 0.30708784 -0.22708227
000180 67 b5 03 bf ef 19 9e be de 24 98 3d 1b 26 86 3e
       -0.51448673 -0.3087916 0.07428907 0.26200947
000190 f4 78 f0 3d 0b 2b 16 3f 04 70 6f bd af 21 ce be
       0.1174182 0.5865943 -0.058456436 -0.40260074
0001a0 cd 87 c7 be c4 61 1d 3f 5f a7 18 3d 24 ee 27 bf
       -0.38970795 0.61477304 0.037268993 -0.6559775
0001b0 74 c4 09 bf 75 d8 a5 be 9d b2 09 3e 94 7a 3c bf
       -0.5381539 -0.32391706 0.13447042 -0.7362454
0001c0 31 66 4b bf 3b 1e 5d be 42 2c 2a 3d f9 3f 3a bf
       -0.79452807 -0.21593563 0.041546114 -0.72753865
0001d0 a9 cf 44 bf 0d 82 b0 bd 93 3d 2c 3e c7 e9 9d 3e
       -0.76879364 -0.08618555 0.16820364 0.3084242
0001e0 95 e5 cf bd 72 38 b8 3e 40 26 8a 3e ff 17 d2 bd
       -0.10151211 0.35980564 0.26982307 -0.10258483
0001f0 fd 08 82 be dc f6 25 3e 3b 59 2e 3e ac 06 03 be
       -0.25397483 0.1620745 0.17026226 -0.12795514
000200 18 b3 de 3d 97 9f 90 3c 41 1b 1a 3e 2d 36 9b 3e
       0.10874003 0.017654223 0.15049459 0.3031477
000210 0d 00 8d bc 33 fe 0e 3e 69 d9 b8 3e 76 80 d3 be
       -0.017211938 0.13964157 0.3610337 -0.41308945
000220 c1 51 4a 3e cd 12 7f 3e e9 d4 3c 3e 45 05 c1 3e
       0.19757749 0.24909516 0.18440594 0.37699333
000230 1b de 6a be 76 ef a2 bf 47 c1 3e bf aa 37 b6 be
       -0.22936289 -1.2729328 -0.7451367 -0.35589343
000240 22 23 84 3e 2d ef 9e 3e c4 97 50 3e 65 ac 82 be
       0.25808054 0.31041852 0.20370394 -0.25522152
000250 d3 8a 34 bf 02 9a 04 bf 3a 71 12 bc 28 3e f5 bd
       -0.7052433 -0.517975 -0.008938128 -0.11974746
000260 9b 67 69 bf db 45 83 be ef 0a 88 be 3e 45 1f bc
       -0.91173714 -0.25639233 -0.26570842 -0.0097210985
000270 1d 8f 1e bf df 37 a3 bf d7 be 9e bd b4 d6 76 3e
       -0.61937124 -1.2751426 -0.077512436 0.2410534
000280 d0 7b c0 3e f8 ac 96 bd 30 5d ba be 01 63 8e 3e
       0.3759446 -0.0735721 -0.3639922 0.2780991
000290 30 5e 02 3f a5 94 19 3e d6 41 fc 3c a9 f3 8e 3e
       0.5092497 0.1499811 0.030793112 0.27920273
0002a0 4b 0b b7 3e fb 26 2a be 1b ba 05 be 99 35 1d 3e
       0.35750803 -0.16616432 -0.13059275 0.15352477
0002b0 c3 fa 9a 3e 16 e1 a9 3d 92 4c 0b 3d 70 73 70 3e
       0.3026944 0.08294885 0.03400857 0.23481536
0002c0 06 97 71 bc 45 af d5 be 79 dd 72 3d 42 86 69 be
       -0.014745479 -0.41735283 0.059293244 -0.22805122
0002d0 de e7 ef 3d 13 9c 6a 3e 36 d5 86 bf 07 9c a1 bf
       0.11714147 0.229111 -1.0533817 -1.2625741
0002e0 d0 55 5e 3e 2e 34 17 3c 0b 39 85 3f c6 c8 41 be
       0.21712422 0.009228749 1.0408033 -0.18924245
0002f0 9c 3d 25 bf ea dc 1a 3e 39 3d 0c bf ab c0 d4 3e
       -0.64547133 0.15123335 -0.5478092 0.41553244
000300 ac 7d a4 3e fe 1c 03 be e2 f3 d4 be 43 a6 cc be
       0.3212713 -0.12804028 -0.41592318 -0.39970598
000310 e9 76 ff bd 9b c0 74 3d bd b7 34 3e 4d 84 e5 be
       -0.12473852 0.059753995 0.17648216 -0.448275
000320 32 ef 26 3f 64 cb 8f bf d3 6b 90 be 16 0b 8c be
       0.65208733 -1.1233945 -0.28207263 -0.27352208
000330 fc 8a e8 3e 55 e8 bf be 2c f1 6e bf a4 f5 09 bf
       0.45418537 -0.37481943 -0.9333675 -0.5389044
000340 86 1f fa 3d f8 80 75 3e 35 f7 65 bf 0b 1e 35 bf
       0.12213044 0.23974979 -0.89830333 -0.70748967
000350 60 11 92 bf 57 cb 26 bf 66 31 c6 3e f0 95 b0 bf
       -1.1411552 -0.6515402 0.38709563 -1.3795757
000360 3f 6f 07 bf ff b3 2d bf 47 d2 c3 bf 87 e4 82 bf
       -0.52904123 -0.6785278 -1.5298547 -1.0225991
000370 fc 02 97 be b3 df 9b 3d 72 17 f8 bd 56 16 d8 bd
       -0.29494464 0.076110266 -0.12113847 -0.10551135
000380 5a a3 26 bf c0 12 44 be 93 64 82 be 16 06 84 be
       -0.65093005 -0.19147778 -0.25467357 -0.25785893
000390 48 f2 22 bd 31 8b e0 3d 16 a3 8d be 8f 8f 85 3d
       -0.03978184 0.10964049 -0.27663487 0.06521522
0003a0 4c 96 1f bc 09 6c 98 3d 67 aa 47 be c3 53 23 be
       -0.009740423 0.07442481 -0.19498597 -0.15949921
0003b0 35 09 aa 3c 20 7f 8a 3d 31 d6 1e be 7c 47 96 be
       0.020756343 0.067625284 -0.15511395 -0.29351413
0003c0 65 6e 1a 3d 3a be 5d be f7 f9 98 be a7 c5 34 3d
       0.037702937 -0.21654597 -0.29878208 0.04413381
0003d0 44 83 84 3d f6 15 8a bd 23 e1 6e 3d be 11 1e bb
       0.064703494 -0.0674247 0.058320176 -0.0024119462
0003e0 58 9a 13 3c 26 2f e7 bb
       0.009008966 -0.007055181

conv1.bias f4 [10]
000000 d4 40 37 bf d5 ec b7 bd 73 0d c9 bd ac 7b 06 bf
       -0.71583295 -0.08980719 -0.09817018 -0.5253246
000010 6b ef f1 be 18 a1 6a be 00 72 a5 bf e0 43 3b bf
       -0.47252974 -0.22913015 -1.2925415 -0.73150444
000020 80 9e 46 3e d1 37 a1 be
       0.193964 -0.31487897

conv2.weight f4 [20, 10, 5, 5]
000000 12 45 14 bf a8 88 47 bf e2 35 8c bf 1c c1 c5 bf
       -0.5791789 -0.77942896 -1.0953944 -1.5449557
000010 38 ff a3 be 23 87 aa be fb 62 06 bf af a9 ab bf
       -0.32030654 -0.33306226 -0.5249478 -1.3411158
000020 0e 8c 6f bf e1 22 8c bf e2 a7 a0 be aa a1 3d bf
       -0.9357308 -1.0948144 -0.31378084 -0.74074805
000030 1d 00 3a bf 3a 5f 7c bf f4 40 e6 be 67 d1 b7 bf
       -0.7265642 -0.98582804 -0.4497143 -1.436078
000040 37 02 2e 3d 11 2e af bd 18 4a 4d be 75 c6 05 bf
       0.04248258 -0.08553708 -0.20047796 -0.52255946
000050 85 58 a9 be 5c 4e 51 be 70 a6 4d bf 33 56 0c be
       -0.33075348 -0.20440048 -0.8033209 -0.13704757
000060 36 75 26 3f 45 bd b6 3d d8 d8 aa be fb 87 7d bf
       0.650226 0.08922819 -0.33368564 -0.99035615
000070 c0 df ae bf a1 39 0e 3e b1 a8 00 3f 9f 1a 87 3e
       -1.3662033 0.13889171 0.502574 0.26387498
000080 8a ba c5 bf d2 32 41 bf 15 f3 51 be 06 30 ef be
       -1.5447552 -0.7546817 -0.20502885 -0.46716326
000090 86 af 47 be 16 2d 19 bf 2b 88 f4 3e 00 b5 17 3e
       -0.1950055 -0.5983442 0.47760138 0.1481514
0000a0 fc 19 85 be cc 4d 2a be 64 69 6f be ed 74 f2 3e
       -0.25996387 -0.1663124 -0.23380047 0.47354832
0000b0 a2 19 e1 3e 3a d2 22 3c 91 f7 e0 be 97 ce 9a be
       0.4396487 0.009937817 -0.43938878 -0.3023574
0000c0 5c 0d 4b be 1c 15 a9 3e 0a 1d 73 bf 93 7c 87 be
       -0.19829315 0.33023918 -0.94966185 -0.2646223
0000d0 4d 53 e0 3c 88 ff 90 be c3 cf bf 3e c3 e6 a7 3e
       0.02738347 -0.28319955 0.37463197 0.32793245
0000e0 26 e2 25 3f d3 c4 0a be 91 99 8a bb 31 1f c0 be
       0.647982 -0.13551645 -0.0042297323 -0.37523797
0000f0 10 6d 06 3f fc 2f 44 bd ac 3f 6e bc c4 34 1d 3e
       0.52510166 -0.047897324 -0.014541548 0.1535216
000100 3e 4f 57 3d 71 5e 4b 3e 6a 1c 75 3f 7b 8b 86 be
       0.052565806 0.19860245 0.9574648 -0.2627829
000110 01 21 31 3f f6 54 25 3f f4 d7 98 be c4 e7 68 3f
       0.69190985 0.64582765 -0.2985226 0.90978646
000120 26 ae 8d 3e 9c 96 71 bd 9a 7c 2f bf a3 34 c5 3e
       0.27671927 -0.058981523 -0.685495 0.3851672
000130 2f 1c 0a bf b6 dd a0 bf 1f 9f 69 3e 40 89 36 3f
       -0.53949255 -1.2567661 0.22814606 0.71303177
000140 48 40 aa be 47 e0 df bf 45 dc 8b bf 53 a1 10 3f
       -0.33252168 -1.7490319 -1.0926596 0.5649616
000150 c3 49 8a 3e 98 ce 92 bf 7c df 9e bf 6a 22 b5 be
       0.270094 -1.1469297 -1.2411952 -0.35377818
000160 67 f2 0d 3e f5 50 3b bf 4e 83 7a bf 8a 9c 2c bc
       0.13862 -0.73170406 -0.97856605 -0.010535369
000170 75 00 db 3d 4d dc 52 be 8c 88 91 bf ce f6 eb 3e
       0.106934465 -0.2059185 -1.1369796 0.46086735
000180 da 72 23 3f 65 68 d6 3e 6b ff 37 bf 9b d8 52 bf
       0.63847125 0.41876522 -0.7187411 -0.82361764
000190 64 9f 13 bf 18 35 27 bf 4c 57 38 bd 48 a3 19 3f
       -0.57665086 -0.6531539 -0.045005128 0.6001477
0001a0 29 07 65 3e aa af b3 3e 6a 35 f2 3e 30 cc a7 3d
       0.22366013 0.3509496 0.47306377 0.081932425
0001b0 e8 45 de bc 79 65 80 be 18 6b 4a 3f d8 b0 ad 3e
       -0.027132943 -0.25077417 0.7906966 0.33923984
0001c0 c6 6f c7 bd 50 49 3c bc 57 d3 11 bf ac 35 03 3f
       -0.09738116 -0.011492088 -0.56963104 0.5125377
0001d0 20 3a a0 3e 07 43 2f bd 15 a5 09 bf b3 cb 92 3e
       0.31294346 -0.04278853 -0.5376752 0.28671035
0001e0 4f 2d c4 3e 4c f5 64 bd 9d 83 45 bf 32 fa 69 3e
       0.38315818 -0.055897996 -0.7715395 0.22849348
0001f0 e8 b5 ca 3e 7f 39 f9 be 5e 85 70 3b 61 25 20 bf
       0.39591908 -0.4867668 0.0036700587 -0.62557036
000200 50 2f 71 be 27 7a 98 be 9c 3e f8 3e e2 bf 75 bd
       -0.23553205 -0.29780695 0.48485267 -0.059997447
000210 53 19 19 bf cc 28 e8 bf 5e 9f 2c bf 5f ee 09 3e
       -0.59804267 -1.813745 -0.67430675 0.13469838
000220 51 4e ee bd a4 66 0f c0 c5 4a ee bf 1c e6 bd bf
       -0.116360314 -2.2406397 -1.8616568 -1.4835849
000230 9e 8a 92 bf c0 2c ca bf 04 22 26 c0 e7 32 a7 bf
       -1.1448553 -1.5794907 -2.5958261 -1.3062409
000240 3b 20 3e bf cd 77 12 bf 08 81 cb 3c 26 6d 3a bf
       -0.7426793 -0.5721405 0.0248418 -0.728228
000250 a2 c6 20 bf a9 6d 92 3e e3 92 73 be 94 28 76 bf
       -0.6280309 0.2859929 -0.23786502 -0.9615567
000260 b8 6b d1 bf 4a 20 25 be bc c4 2b 3e 38 bd 27 bf
       -1.6360998 -0.16125599 0.16774267 -0.655231
000270 00 e9 d7 bf 5c 77 0a bf a3 64 f5 3d 29 75 0e 3e
       -1.6867981 -0.5408838 0.119820856 0.1391188
000280 67 cd 7c bf 81 da 4a bf 28 1b 1e be 96 58 fb 3e
       -0.9875092 -0.7923966 -0.15440047 0.49091023
000290 8c a8 3e be 72 9a 0c bf 1c aa da bd 7a 47 6a 3e
       -0.18618983 -0.54923165 -0.10676977 0.22878829
0002a0 64 39 36 3e e1 77 54 bf b5 d3 80 3e 48 78 03 3f
       0.1779533 -0.8299542 0.2516152 0.5135541
0002b0 10 7c ae bd 39 a8 20 bf 9d 60 dd be 4e 79 65 3f
       -0.08519757 -0.6275669 -0.43237773 0.8963822
0002c0 a0 fb 82 3f 87 1a 3f 3f 08 74 7e be a7 9e 7a bf
       1.023304 0.7464985 -0.2484895 -0.97898334
0002d0 f5 87 0e 3e 88 3b 54 3f a7 d9 87 be 43 3f 8e bf
       0.13919051 0.8290334 -0.26533243 -1.1113056
0002e0 24 4e 25 bf 7e d1 69 bd c4 aa 12 bf 0d bc 95 bf
       -0.6457236 -0.057084553 -0.5729182 -1.1698014
0002f0 78 06 a9 bf 8e 94 19 bf 33 50 a0 bf 25 ab a5 bf
       -1.3205099 -0.599923 -1.2524475 -1.2942854
000300 63 bf f7 be 27 3f 61 3e b9 48 b6 3e dc a7 7b bf
       -0.48388204 0.21996747 0.35602358 -0.9830301
000310 1a 84 a1 be 9c 0d 88 be bd bd 12 be d3 60 35 3f
       -0.31546098 -0.26572883 -0.14330192 0.7085087
000320 44 2a 84 3d b3 e9 32 bc 0c 4a b0 3c 66 a9 d1 3e
       0.06453374 -0.010919976 0.021519683 0.40949553
000330 fe 0d 2f 3f 7e 93 1b 3f 31 b2 37 3f 21 0f f1 3d
       0.68380725 0.6077193 0.71756274 0.11770464
000340 95 f5 24 be c2 87 16 be d8 e2 9b 3f 06 56 de 3e
       -0.16109307 -0.14700225 1.2178602 0.43425006
000350 1e 01 ed bc 1e f8 7b bf 0e 20 2c bf 8b e7 1b 3f
       -0.028931197 -0.9842547 -0.6723641 0.6090018
000360 28 2a 29 bf 61 61 8d bf da c2 77 bf 84 ec 2a bf
       -0.6607995 -1.1045343 -0.96781695 -0.66767144
000370 2d 7a 38 bf f2 62 c0 bf 05 9d f6 bf af 2f 0d bf
       -0.72061425 -1.5030196 -1.9266669 -0.55150884
000380 30 85 52 3f cc d7 81 be 27 72 90 be 8f 3a b8 be
       0.8223448 -0.25359952 -0.2821209 -0.35982177
000390 43 ba 8e be 2a d3 da bd aa b1 89 be 6c 5c c9 be
       -0.2787648 -0.106848076 -0.2689336 -0.39328325
0003a0 9c 5f 4f be cd 35 92 3b be 82 1d 3e 20 1a 9c be
       -0.20251316 0.00446198 0.15381905 -0.30488682
0003b0 b1 d9 dc bd b4 da c3 3d 6b 2c 02 3e 31 be 30 bd
       -0.10783709 0.09563199 0.12712257 -0.04315013
0003c0 87 dc a1 bd 58 48 e7 3d cc 9d 8f 3d a0 f3 bc 3d
       -0.079033904 0.11293095 0.07012519 0.09226155
0003d0 49 50 99 bd 61 13 9b 3e 74 5f 97 3e b7 3e 5e 3e
       -0.07486016 0.30288222 0.29565012 0.21703611
0003e0 ab 87 5e 3e 3c 19 20 be cd 10 e3 3e 4a 25 71 bf
       0.2173144 -0.15634626 0.44348755 -0.94197524
0003f0 27 f9 29 bf 82 cc 58 bf 75 ec 95 bf 2b 0d 2e be
       -0.663958 -0.84687054 -1.1712786 -0.1699721

conv2.bias f4 [20]
000000 49 7b b8 3e e2 aa e7 3c 55 88 cd be 01 d3 0f bf
       0.3603156 0.028279725 -0.40143076 -0.5618134
000010 97 34 bf be e6 c2 be be 48 d3 b6 bd 22 4a 18 bf
       -0.3734481 -0.3725807 -0.089270175 -0.5948812
000020 dd 65 1c 3e 2d fc 25 be cb 80 38 be 7c 9e d4 be
       0.15273233 -0.16209479 -0.1801788 -0.41527164
000030 68 9c 22 be 14 bd c5 be a8 74 70 3c 3a 11 6b be
       -0.15879977 -0.38620818 0.0146762505 -0.2295579
000040 67 04 1f be 99 8e 46 3e e8 be b0 bd 86 ea d3 bd
       -0.15529023 0.19390334 -0.086301625 -0.10347466

fc1.weight f4 [50, 320]
000000 b8 62 a9 be 3f 6e 89 bd b5 41 ab bd 87 84 03 bf
       -0.3308313 -0.06710481 -0.08362142 -0.51374096
000010 ec 7d d7 be 97 cf c1 be 56 65 9b bc a4 0e d7 be
       -0.42088258 -0.3785369 -0.01896922 -0.42003357
000020 09 e7 e0 be 91 50 0b bf 90 6e 67 be 2e 89 10 3d
       -0.43926266 -0.5441981 -0.2260077 0.035287075
000030 3f e5 25 bd 90 8e cb bd 62 91 a5 be 78 6f f4 bd
       -0.04050183 -0.09939301 -0.3233748 -0.119353235
000040 29 70 ac bd 8b d8 c5 bd 0f 3c 4f be 49 12 4a bd
       -0.0841983 -0.09660443 -0.20237754 -0.049333844
000050 9e 8f 97 be 94 7a 61 bd 2c 67 89 bd 4c ef 13 bf
       -0.2960176 -0.05504854 -0.067091316 -0.57787013
000060 64 66 9c be 10 28 96 3d d2 05 c3 be 92 29 cb be
       -0.30546868 0.0733186 -0.38090378 -0.39680153
000070 60 51 c5 bd 07 a0 d4 be 01 3c de bd b0 26 5c bd
       -0.09634662 -0.4152834 -0.108512886 -0.053747833
000080 9e 0d 89 bd 0f 81 17 be 64 ea cc be ba 16 70 be
       -0.066920504 -0.14795326 -0.40022576 -0.2344617
000090 4d f4 dd be 8a 87 07 bf 6e 36 a6 be 0d b3 46 be
       -0.4335045 -0.5294119 -0.32463402 -0.1940424
0000a0 1c 3c 24 bf b5 0d d0 bd 18 a6 6a 3d 35 2c 16 3d
       -0.6415422 -0.101588644 0.057287306 0.036663253
0000b0 b9 dd f6 be f0 13 b2 be 6a 30 91 bd bc 98 ae 3e
       -0.48216036 -0.34780836 -0.070893124 0.34100902
0000c0 d7 18 84 3e 7c 03 ae bd 0c d1 0b bf 1f 43 d5 be
       0.258002 -0.08496758 -0.54615855 -0.41652772
0000d0 f9 80 b0 be f0 33 58 3e b0 95 ec be da d1 a0 be
       -0.34473398 0.21113563 -0.46207952 -0.31410104
0000e0 33 74 2e 3e 4d 4b 24 3d 42 c4 cb be f4 f2 be bd
       0.17036514 0.040110875 -0.3979817 -0.093236834
0000f0 3a 37 ab be b8 69 d6 be 28 32 ad be 34 ee a9 bc
       -0.33440572 -0.41877532 -0.3382733 -0.020743467
000100 6c fe 43 bd dc 80 b9 bc 9b 4b a5 bd b3 1e c7 be
       -0.047850057 -0.022644453 -0.08071061 -0.3889061
000110 be 28 a2 bd 1b a9 ec bd 10 52 b0 bd e6 8b 96 be
       -0.07917927 -0.11555692 -0.08609402 -0.2940361
000120 eb d9 13 be 81 1b 71 bc ff 58 e4 bb df be bf be
       -0.14438598 -0.01471603 -0.006968617 -0.3745031
000130 a4 63 a8 be 77 31 b3 bd cc be a6 be 09 21 24 bd
       -0.3288852 -0.08749669 -0.3256744 -0.040070567
000140 ab a7 05 bd 01 97 be be 23 51 ab bc d6 36 68 be
       -0.032630604 -0.37224582 -0.020912712 -0.22677168
000150 d5 cd bc bd 91 0b c9 bd e1 af 24 be e5 ba 18 bf
       -0.09218947 -0.09816659 -0.16082717 -0.5966018
000160 e5 46 69 bd 87 30 f6 bd ad ef ca bd 0e ff a8 bd
       -0.056952376 -0.120209746 -0.09908996 -0.08251773
000170 71 6b b2 bd 0c 94 d2 bc 30 2f 92 bc f2 99 41 be
       -0.08711899 -0.02570536 -0.017844766 -0.18906382
000180 a5 93 c0 be 2d 74 da be 6b c4 bd be 34 53 dc bd
       -0.37612644 -0.4266676 -0.37063918 -0.10758057
000190 93 bb a2 be 52 83 d1 be 5c 8f 4d bd 2d 1d ae bc
       -0.31783733 -0.40920502 -0.050185546 -0.021254146
0001a0 de 94 c6 be cc 1c e5 bd 3b ba 3c be 33 c1 a1 be
       -0.38785452 -0.11187133 -0.18430416 -0.31592712
0001b0 90 29 bb bd 3b ed a0 3d c9 79 ad be 61 4f 69 bd
       -0.09138787 0.07857748 -0.33881977 -0.056960467
0001c0 ce c6 2e bd 77 5b 3f bd 1a c9 93 bd aa 3c 54 bd
       -0.042670064 -0.046718087 -0.072160915 -0.051815666
0001d0 b8 42 28 bd bd 54 d8 bc 8a 73 19 bd ee 51 0e bc
       -0.041079253 -0.026407594 -0.037463702 -0.008686526
0001e0 13 18 01 bd c7 95 b4 bc 8f f9 c0 bc f2 87 a2 bd
       -0.0315171 -0.022044076 -0.023556499 -0.07936086
0001f0 1d 6d 7f bc 2c a7 59 bd a7 09 ec bd 21 cc e4 bd
       -0.0155899795 -0.053137943 -0.115252785 -0.11171747
000200 09 2a 76 3d 54 1d e7 bd 03 c4 c8 be b0 b8 fe bc
       0.06009868 -0.11284891 -0.39212045 -0.031093925
000210 24 ba 0e bd 23 d6 43 bd a3 9a 95 be bc ad 40 bc
       -0.034845486 -0.04781164 -0.2921954 -0.0117601715
000220 6d 30 86 bd 24 86 90 bd 28 58 9a bd 98 bf f3 bd
       -0.06552205 -0.07056835 -0.07536346 -0.11901778
000230 e1 82 8b be 30 3d b4 bd 2c f9 e8 bd ef 90 b6 be
       -0.2724829 -0.08800733 -0.11375651 -0.3565745
000240 af 8e 20 be 12 e1 e7 bc 98 19 96 bb 6f 2e d3 be
       -0.1567943 -0.028305564 -0.0045806877 -0.41246364
000250 57 54 37 bd e2 50 f2 bd d4 98 95 bd 47 d8 d9 bd
       -0.044758167 -0.118318334 -0.0730454 -0.10636955
000260 90 5e 90 be 07 05 3c be 58 00 c7 bd 0c 6b e5 bd
       -0.28197145 -0.18361293 -0.097168624 -0.11202058
000270 70 e1 aa bd b6 e0 73 bd fa c3 dc be c2 85 d7 be
       -0.0834378 -0.059540473 -0.43118268 -0.42094237
000280 cc 0a 5c bd 3e 1e a7 bd 79 a2 a9 bd 8f f8 98 bd
       -0.053721234 -0.08160065 -0.08282942 -0.07469284
000290 8d c7 a3 bd 7f ab 49 bd 54 4b 7c bd b2 d8 ae be
       -0.07997046 -0.049235817 -0.061595276 -0.341497
0002a0 75 aa d1 3d 74 b9 8f be 1a d4 ad bd a4 ae d6 be
       0.1023759 -0.28071177 -0.08487721 -0.41930115
0002b0 b2 da 8b 3d 00 ae c4 bc 86 49 97 be 89 b4 8c bd
       0.06828822 -0.02400875 -0.2954828 -0.06870372
0002c0 88 ab 46 3e 9b d9 2c bd 18 45 85 bd eb fd 74 bd
       0.19401371 -0.042199712 -0.06507319 -0.059812468
0002d0 4b e9 c0 be 05 9e d3 be fe 72 a0 bd b3 48 53 bd
       -0.37677988 -0.41331497 -0.07834433 -0.051583003
0002e0 72 36 10 bd a9 ca dc be 74 33 e2 be a0 ea 45 bd
       -0.035208173 -0.43123367 -0.4417988 -0.04831946
0002f0 03 32 4e bd 66 3b d1 be 67 e6 d8 be 03 e7 c6 bd
       -0.050340664 -0.4086563 -0.42363283 -0.09712031
000300 20 7b ea bd 4d 22 02 bd 84 0b 12 bc f4 2a db bd
       -0.114492655 -0.031770993 -0.008913878 -0.10701552
000310 28 c0 75 bd ea db 65 bc c9 90 b2 bb e6 17 81 bd
       -0.059997708 -0.014029482 -0.0054493886 -0.063033864
000320 60 a9 dd bd bd 35 7b bc 45 97 4e bd 46 90 41 bd
       -0.10823321 -0.015332636 -0.05043723 -0.04725673
000330 b8 68 00 3d 09 7f 73 3d 26 35 0b bd 33 2b 0b 3d
       0.031349868 0.059447322 -0.033986233 0.033976745
000340 d5 8e d3 bd c4 29 a4 be a4 54 ae bc 7f 29 7b bd
       -0.103299774 -0.32063115 -0.021280594 -0.06131887
000350 e9 c9 6d bd b5 17 d0 bd 27 f1 d9 bd 2a a1 95 bc
       -0.058053885 -0.10160772 -0.10641699 -0.018265326
000360 bd a6 e7 bd db 5b 3b bd d2 9c 73 bd 98 8a 76 bc
       -0.113111 -0.045741897 -0.059475727 -0.015047692
000370 06 bd 94 bd 2e 1c 13 be cb 0b 65 bd 2c 9f 76 bd
       -0.07262616 -0.14366218 -0.05591945 -0.060210392
000380 11 d4 b1 bd 69 d9 3c 3c 64 cb 0e be 1f 1f 9e be
       -0.086830266 0.011526444 -0.13944775 -0.3088312
000390 63 82 95 bd 4d e8 ab be 83 59 a4 be 0f 8f 6f be
       -0.0730026 -0.3357567 -0.32099542 -0.23394416
0003a0 6f 1e c2 3d 68 16 d9 3d c2 b2 54 3e ea 7f ae be
       0.09478461 0.10599977 0.20771316 -0.34081966
0003b0 a2 b7 91 3d 53 2b 16 bd f5 04 d8 bd 67 2d 99 bc
       0.07115103 -0.03666241 -0.105478205 -0.018698407
0003c0 b7 d4 eb be 7e 20 57 be b2 f2 ce be 1c 76 10 bd
       -0.46060726 -0.21008489 -0.40419537 -0.035268888
0003d0 5c d2 7f be f6 44 af be 02 bc ce be 55 92 d3 be
       -0.2498259 -0.342323 -0.40377814 -0.4132258
0003e0 c6 58 14 be c4 bb a4 bd 24 ce 94 be cb f7 96 be
       -0.1448699 -0.08043626 -0.29063523 -0.29485926
0003f0 00 25 e8 bd f6 35 95 3e d3 db 83 3e 65 fb a8 bd
       -0.11335182 0.2914273 0.2575365 -0.08251075

fc1.bias f4 [50]
000000 3d 10 e4 be e9 34 bf be b0 56 12 be 53 3b 1c be
       -0.4454364 -0.37345055 -0.14290881 -0.15257005
000010 d1 d6 99 bd c8 5b 0f 3d 74 e2 28 3e 2a 1c 2d 3e
       -0.07511676 0.03499964 0.16492635 0.16905275
000020 17 6d 8e bd 2f 7f 78 be 7b 92 c0 3d 20 3e d2 bd
       -0.06954401 -0.24267267 0.09402939 -0.10265756
000030 cc e1 96 be f7 45 b2 be 19 80 ae 3d 54 e7 db 3b
       -0.29469144 -0.34819004 0.085205264 0.006710926
000040 69 58 55 be df c6 0b bf 95 f4 2c bc fa 9b c3 bd
       -0.20834507 -0.5460033 -0.01055636 -0.095512345
000050 52 a8 8e 3d c2 71 b0 3e 67 65 f2 be d7 e3 1f be
       0.06965698 0.3446179 -0.4734299 -0.15614258
000060 29 e1 1c 3d 16 f5 03 bf 48 48 34 3c 79 90 9a bc
       0.038300667 -0.51545846 0.011003561 -0.018867718
000070 f1 07 b4 bd 8b 73 b9 be af 22 b9 be dc 94 e7 be
       -0.08790577 -0.36220965 -0.36159274 -0.45230758
000080 61 5e 13 bd 0b 5d 17 bf b4 1f a7 be 9f 98 b4 bd
       -0.03597868 -0.5912635 -0.32641375 -0.08818173
000090 a9 54 a7 be 8c bf 1d 3d 25 29 84 be ca 0b 9a bd
       -0.32681778 0.03851275 -0.2581264 -0.0752178
0000a0 5c 43 03 be bc 87 46 3d 7e 5b a7 3c ac 97 b5 bd
       -0.12818664 0.04846929 0.020429369 -0.0886682
0000b0 82 f4 f6 be 9f 71 b0 be 5f df 03 3f 91 79 13 3e
       -0.4823342 -0.34461686 0.5151271 0.14401843
0000c0 e1 73 9f be e5 99 75 bd
       -0.31143096 -0.05996122

fc2.weight f4 [10, 50]
000000 56 fc cd bd 91 7d 85 be bd 41 7c 3d ce 17 02 bd
       -0.10057895 -0.26072362 0.06158613 -0.031760983
000010 fa a4 28 3d 4a 61 32 be 87 c3 1f be db f5 de 3e
       0.04117296 -0.17419925 -0.15601932 0.43546948
000020 9e a4 4a bd 4c 81 2e be e7 8f bb be 8b ad 2e 3c
       -0.049473397 -0.1704151 -0.36633226 0.010661493
000030 c4 01 2d be a9 89 44 be d1 a8 a8 bc f1 db ee be
       -0.16895205 -0.19193138 -0.02058831 -0.46652177
000040 35 1a a2 be 69 c0 bf be bb e1 ff bd da b0 b6 bd
       -0.3166062 -0.37451485 -0.124942265 -0.089204505
000050 44 45 a3 3e bd dd 19 3d 81 50 5c 3e f4 c7 2c 3e
       0.31888783 0.03756498 0.21515085 0.16873151
000060 d8 5d c3 be 25 76 a7 bf ea a8 a4 bc e4 2e d9 bd
       -0.38157535 -1.308293 -0.020100076 -0.10604647
000070 ff 51 47 bd 40 6f 15 3e 01 10 83 be 46 dd 9e 3d
       -0.048662182 0.1459322 -0.25598148 0.07757048
000080 a9 ee 2a bd 8a a0 f9 be d5 ca 53 be 55 1e a7 bc
       -0.04173151 -0.48755294 -0.20682843 -0.020400206
000090 35 31 f0 3c 0b f0 2c 3e 56 6b 86 be 06 bc dc 3d
       0.029320339 0.16888444 -0.26253766 0.1077805
0000a0 63 2a a1 be 70 7b ac be 1f 82 65 be e5 ab 02 bd
       -0.3147765 -0.33687925 -0.22412919 -0.031902213
0000b0 93 70 a3 3d 87 41 07 be fa 01 2e be 5e c7 49 be
       0.07980456 -0.1320859 -0.16992941 -0.19704959
0000c0 7b e8 97 bd e2 73 a7 bd 85 a7 95 be ee d1 b4 be
       -0.07417389 -0.081764 -0.2922937 -0.35316414
0000d0 9b 99 8d bd 3f 8b 1f 3e 67 37 0f 3d ff de 86 be
       -0.069140635 0.15580462 0.034964945 -0.26342008
0000e0 53 21 4f be e6 e6 81 be b6 8c 1f be d4 69 ba 3c
       -0.20227556 -0.25371474 -0.1558102 0.02275554
0000f0 f8 ac 8f be 61 b6 8e 3d 82 a6 ac be 79 97 66 be
       -0.28061652 0.0696838 -0.33720785 -0.2251872
000100 6b 87 77 be 77 d8 5f 3e b0 c9 a9 3d e9 88 f8 be
       -0.24172752 0.21859919 0.08290422 -0.48541954
000110 d5 21 1a be 4e 22 d8 bc 27 26 ec bd 3d 2f 02 3f
       -0.15051968 -0.026383545 -0.115307145 0.5085333
000120 8c f0 8d bd 5b f6 2f be 4b 0e c8 bd 2b d0 86 3c
       -0.06930646 -0.17183821 -0.09768351 0.016456684
000130 a1 3d 77 bd 00 ad 6c bd ad 10 1b 3d 75 a4 19 bf
       -0.06036151 -0.057782173 0.0378577 -0.60016567
000140 44 b0 e6 be 08 9a ac be c8 1e 30 3d 17 ca ce be
       -0.45056355 -0.33711267 0.042998105 -0.40388557
000150 83 3c e6 be 69 46 eb 3c db 6d f7 be 79 24 52 3e
       -0.44968042 0.028720098 -0.48326 0.20521726
000160 cf 0a bc 3e 6a c2 1a be df c9 4a 3e 89 30 70 3d
       0.36726996 -0.15113226 0.1980357 0.058640037
000170 eb 15 01 bd 1e 41 8e 3c 11 7e 4b bc c2 6e aa be
       -0.031515043 0.017365035 -0.012420193 -0.33287627
000180 bb bd 3f 3d 2b c3 73 3e 56 9c 5c bb 41 1d 58 bc
       0.0468118 0.2380492 -0.003366252 -0.013190568
000190 60 ff f3 3d 73 2d 2a 3e 83 bf 5d bd 75 8a 61 3d
       0.11913943 0.166189 -0.054137718 0.055063684
0001a0 f9 20 87 3c a5 0b 87 3c b8 3b ae be 8c f9 83 bd
       0.016495215 0.016485045 -0.34029937 -0.06444082
0001b0 17 b1 41 be 4b 1a 85 3d fc 87 0b 3e 34 37 05 bc
       -0.1891521 0.064991556 0.13626093 -0.008130837
0001c0 a7 01 e9 3d 9a 2a 67 3d 58 de 09 be 82 62 35 3e
       0.11377268 0.056437112 -0.13463724 0.17713359
0001d0 63 e6 9b be 6a 9a 4d bd 2d 88 dc bc 02 ec 44 bd
       -0.3044921 -0.05019609 -0.026920402 -0.048076637
0001e0 73 47 cd be 60 d0 89 bc 56 34 78 3e 04 6a 3f be
       -0.40093574 -0.016822994 0.24238715 -0.18692786
0001f0 41 5c 2c bd 8c 2c 2d bf 2e 40 4d 3e e3 88 d1 3d
       -0.042080168 -0.676461 0.20044014 0.10231187
000200 3a 72 65 3d 6b a5 eb bd 45 b6 af 3e d3 94 94 3e
       0.056017138 -0.1150616 0.34318748 0.29019794
000210 0d 4b a4 3d 06 ad 38 be 53 ed 91 be 87 56 98 bd
       0.08022127 -0.18034753 -0.28501377 -0.07438379
000220 75 ea 8d bd 49 be d4 be 4c dc 59 be a8 18 09 be
       -0.06929485 -0.41551426 -0.21275443 -0.13388312
000230 95 30 a6 bc fb 30 9d 3e 8a 6b c8 be 16 f5 62 3d
       -0.020286838 0.30701432 -0.39144546 0.055409513
000240 b9 22 f0 be 5a 21 58 be 22 3d a2 bd f5 a7 c2 be
       -0.4690149 -0.21106473 -0.079218164 -0.38018766
000250 2d d0 b7 3e 99 02 89 bc 80 55 95 3e 9c d1 35 3e
       0.35901013 -0.016724871 0.29166794 0.17755741
000260 0b 6a eb 3d f3 03 26 3d 34 b4 02 be 81 22 8b be
       0.114948355 0.04053111 -0.12764055 -0.27174762
000270 05 d5 eb bd d0 05 af be 89 0d 3e bc e7 43 8f be
       -0.115152396 -0.34184122 -0.011599907 -0.27981493
000280 c6 7e 67 3e 4b c1 69 3d a8 77 ff be f8 95 79 be
       0.22606954 0.057069104 -0.49895978 -0.24373615
000290 f3 51 ec bd 2b 0e 8c 3d 41 04 89 be 46 df 8c 3c
       -0.11539068 0.0683864 -0.26761058 0.017196309
0002a0 2d bd 6a 3c 83 f8 40 3d 87 1a 2a be b6 6d 6f be
       0.01432733 0.047112 -0.16611682 -0.23381695
0002b0 ea 1c 93 be 92 5e 2c 3e a8 c2 a0 3e d4 65 06 bf
       -0.28732997 0.1683295 0.3139851 -0.5249913
0002c0 a2 24 bb 3e 08 ce c3 3d 86 52 29 be 2f 6a 2e 3e
       0.36551386 0.09560782 -0.16535386 0.17032693
0002d0 38 f1 67 3e f4 db 5e bd c4 fc 16 be e1 3f 6e bd
       0.22650611 -0.054408982 -0.1474486 -0.05816639
0002e0 cb 20 86 be 2f 77 dd 3c 0e 37 1b 3e 84 76 de bd
       -0.26196894 0.02703437 0.1515772 -0.10862449
0002f0 e5 b4 ca bd 07 db 09 3e 3f 29 a4 3e e3 d0 8c bd
       -0.09897784 0.13462459 0.32062718 -0.068757795
000300 08 10 aa 3e 85 bb 15 be 89 c0 21 3e 31 0a 2e be
       0.33215356 -0.14622314 0.15796103 -0.16996075
000310 bc ae 93 be a9 cd 05 3e 37 38 17 3e 9b 60 2c bd
       -0.2884425 0.13066734 0.14767538 -0.042084318
000320 01 f8 ba be f3 09 e9 3c 64 75 b6 bd 14 f2 10 3d
       -0.36517337 0.028447127 -0.08909109 0.035387114
000330 12 70 66 bc a1 ee 4e 3e 6f 0d 7e 3e 47 a2 65 be
       -0.014064806 0.20208217 0.24809812 -0.22425185
000340 64 6b 89 3d ef 0e 34 be d7 d1 46 bd 94 a1 03 be
       0.06709936 -0.17583822 -0.048539963 -0.12854606
000350 1e 55 a5 3e 58 bd 6b bd 7c f8 a5 be 36 1f bd bd
       0.32291502 -0.05755362 -0.3241614 -0.09234469
000360 46 85 4c 3d ee 1a 98 be 5b ef 21 3c 14 c1 31 3d
       0.049931787 -0.29708046 0.009883727 0.043397024
000370 08 27 2c bd 47 33 c0 bd ce 92 8d 3d 27 b6 a4 be
       -0.04202941 -0.093847804 0.069127664 -0.3217022
000380 e0 3f ec 3d c8 3c 90 bf bc cc 54 be ac 49 2e bd
       0.11535621 -1.1268549 -0.20781225 -0.042550728
000390 b1 b2 2b 3e 54 df bf be 79 2e ab be c8 1a 88 bd
       0.16767384 -0.37475073 -0.33433893 -0.06645733
0003a0 89 be 91 bd 3e c2 ae 3d f5 9a b7 3c 52 ff 17 3d
       -0.0711642 0.085331425 0.022412756 0.037108727
0003b0 c4 a1 fe bd 18 f8 00 3e 66 33 d2 39 d9 6b 45 be
       -0.12433198 0.1259464 0.00040092616 -0.19279422
0003c0 81 33 39 3e f6 86 ed bd 55 39 18 be 11 ed a4 bd
       0.18086053 -0.115980074 -0.1486562 -0.08053029
0003d0 13 d3 5d 3e b7 59 83 be c3 61 af 3e 23 68 52 be
       0.2166255 -0.25654384 0.34254274 -0.20547538
0003e0 51 c4 83 bd f0 35 e8 3d 29 67 c5 3c 0e 7b 44 3e
       -0.06433929 0.11338413 0.024097042 0.19187567
0003f0 60 a8 d4 be 6f 44 58 be 80 14 ff bd 42 b7 2b be
       -0.4153471 -0.21119855 -0.12455082 -0.16769126

fc2.bias f4 [10]
000000 2f 33 96 bd 0f 01 04 3f d8 56 a4 be 12 ca be 3d
       -0.07333981 0.51564115 -0.32097507 0.093158856
000010 f2 47 81 be b8 25 11 3d 45 49 10 bf b1 9d 62 be
       -0.25250202 0.035436362 -0.563618 -0.22130467
000020 0d f4 ff 3e d9 9b 42 3d
       0.49990883 0.04751191
