deliver/model.pth (torch_old, 248362 bytes, 10 tensors)

conv1.weight f4 [6, 1, 5, 5]
-0.3825157 -0.543785 -0.5942738 -0.3701216 -0.46475083 0.43872148 0.49638966 0.5060814
0.13400073 0.15873474 0.08210533 0.3899064 0.015417008 -0.3712594 -0.23499136 -0.831154
-0.5621398 -0.18626936 -0.1330619 -0.36071083 -0.47185853 -0.16246201 -0.030463459 0.02530422
-0.07529636 -0.10581188 0.060099047 -0.27532348 -0.7850661 -0.6270736 -0.078835286 0.19849904
0.17024434 -0.60141677 0.06556872 -0.21737947 0.1927996 0.21414274 -0.029691529 0.39962584
-0.036518786 -0.07556533 0.11732648 0.45317176 0.30526322 0.04551901 -0.1706998 0.096291855
0.12219783 -0.25487706 0.22259931 -0.054507207 0.0673552 0.18808158 0.35416755 0.12071823
0.10590318 -0.052160222 0.010324637 -0.19714509 0.15007238 0.011396318 -0.19951342 -0.21993618
0.3004287 -0.53041387 -0.35316655 -0.55086726 -0.11222377 0.029605817 -0.4072697 -0.30371654
-0.32378313 -0.15026633 -0.1217138 0.6258879 -0.57571584 -0.49071124 -0.43385455 0.13743421
0.2944054 -0.20502861 -0.030674197 0.10337002 0.41341892 0.029145919 -0.16287874 -0.20904179
-0.09259554 0.23968425 -0.4095597 -0.14764743 -0.2507128 -0.3455715 0.18806607 -0.11493692
0.11649521 -0.14744952 -0.48325646 0.018114977 -0.092346966 -0.075755574 -0.02330992 -0.17204027
0.05880247 0.10238648 -0.23724717 -0.51427 -0.3586583 0.1285149 -0.15201129 -0.2564713
-0.16158499 0.06776351 0.19168328 -0.3389752 -0.17232202 0.19158891 0.093797974 0.36205998
-0.54584974 -0.22533435 -0.080546305 -0.07657206 0.14688963 0.12855554 -0.30979905 -0.07947012
-0.2313688 -0.036676224 -0.38565415 0.14820702 0.1285765 0.167296 0.3416506 -0.25614938
0.29753387 0.3646408 0.18481103 0.110642254 -0.83389986 -0.35072482 -0.24534452 0.13553844
-0.39653113 -0.31278804 -0.40390545 -0.6245445 -0.41008225 -0.53673345
00000000: 19d9 c3be 7e35 0bbf 5422 18bf 9480 bdbe
00000010: d2f3 edbe 1aa0 e03e c926 fe3e 8d8e 013f
00000020: 7d37 093e 5c8b 223e d726 a83d d0a1 c73e
00000030: 9e97 7c3c b615 bebe 93a1 70be 82c6 54bf
00000040: 65e8 0fbf 65bd 3ebe 6141 08be 17af b8be
00000050: 7197 f1be 715c 26be 818e f9bc cc4a cf3c
00000060: fa34 9abd e6b3 d8bd 6b2a 763d 33f7 8cbe
00000070: 18fa 48bf e587 20bf 6574 a1bd 5543 4b3e
00000080: 8854 2e3e 73f6 19bf e548 863d b998 5ebe
00000090: 426d 453e 3c48 5b3e a63b f3bc c29b cc3e
000000a0: b994 15bd ffc1 9abd de48 f03d 2106 e83e
000000b0: 764b 9c3e 2472 3a3d eecb 2ebe aa34 c53d
000000c0: db42 fa3d 3f7f 82be 13f1 633e f342 5fbd
000000d0: 86f1 893d 7598 403e 7355 b53e 1f3b f73d
000000e0: c4e3 d83d f5a5 55bd ab28 293c 67e0 49be
000000f0: 93ac 193e 9fb7 3a3c 3f4d 4cbe f336 61be
00000100: cad1 993e 34c9 07bf 3fd2 b4be a305 0dbf
00000110: 93d5 e5bd e687 f23c a785 d0be bc80 9bbe
00000120: e7c6 a5be 6bdf 19be 1645 f9bd 303a 203f
00000130: 1d62 13bf 813e fbbe 2f22 debe 8ebb 0c3e
00000140: 4ebc 963e 05f3 51be 7448 fbbc a9b3 d33d
00000150: a5ab d33e 6cc3 ee3c afc9 26be 0d0f 56be
00000160: bba2 bdbd ca6f 753e cfb1 d1be e330 17be
00000170: 6e5d 80be bfee b0be 6494 403e 0c64 ebbd
00000180: 0a95 ee3d 02fd 16be 646d f7be dc65 943c
00000190: 6820 bdbd bd25 9bbd 72f4 bebc 532b 30be
000001a0: dcda 703d 01b0 d13d ecf0 72be 33a7 03bf
000001b0: 10a2 b7be 6999 033e d9a8 1bbe 3550 83be
000001c0: 8976 25be 98c7 8a3d 9f48 443e 288e adbe
000001d0: 2f75 30be e22f 443e 2719 c03d ed5f b93e
000001e0: cfbc 0bbf 0cbe 66be 76f5 a4bd d0d1 9cbd
000001f0: 3c6a 163e 10a4 033e fb9d 9ebe 3bc1 a2bd
00000200: f1eb 6cbe cf39 16bd 7674 c5be 95c3 173e
00000210: 8fa9 033e a54f 2b3e d4ec ae3e 0326 83be
00000220: 5c56 983e 33b2 ba3e 1a3f 3d3e 6898 e23d
00000230: 767a 55bf 3492 b3be 983b 7bbe 97ca 0a3e
00000240: 2106 cbbe c125 a0be b2cc cebe 26e2 1fbf
00000250: 4df6 d1be 5d67 09bf

conv1.bias f4 [6]
-1.5630459 -0.9495035 -0.9998678 -1.3013761 -1.2865723 -0.8901953
00000000: e311 c8bf a912 73bf 56f7 7fbf 7e93 a6bf
00000010: 67ae a4bf d7e3 63bf

conv2.weight f4 [16, 6, 5, 5]
-0.09500761 -0.0026598407 -0.09195924 -0.038427737 -0.11466131 -0.028474307 0.009104555 -0.0724813
0.044878427 0.0012357701 -0.011400851 0.02229001 -0.13079391 -0.057721164 0.033208527 -0.08038385
-0.024021411 -0.051010706 -0.028905904 -0.07325402 -0.0054745777 -0.010163414 -0.08125838 -0.035194997
-0.08139359 -0.234155 -0.30455568 -0.13170534 -0.114249125 -0.14420095 -0.22794539 -0.27668074
-0.254077 -0.15967672 0.016550897 -0.10292938 -0.05028132 -0.11706061 -0.07452447 -0.087651104
-0.045003444 -0.049294468 -0.012975424 -0.09240828 -0.015082762 -0.15281416 -0.09483923 -0.09217854
0.030899078 -0.15328458 -0.15363432 -0.04333203 -0.07729086 -0.04743872 -0.057712257 -0.0076798066
0.015167696 -0.09338238 0.041307848 -0.135589 0.019589823 -0.15606682 0.043975692 0.0254502
-0.017240193 -0.130334 -0.07346612 -0.05584406 -0.0030664315 -0.20656186 -0.087653555 -0.14154
-0.014348742 -0.10358991 -0.11174314 -0.02885717 -0.086694196 0.058530673 -0.14398691 -0.011258428
0.019045554 -0.04758327 -0.08983098 -0.02538621 -0.043940898 -0.0012346063 -0.022864182 -0.048458587
-0.09614517 -0.13620168 -0.0025384778 -0.049534626 -0.13583007 -0.020801105 -0.075272106 -0.09076169
-0.031990547 0.0045441785 -0.024068236 -0.22816151 -0.1034634 -0.023669682 -0.029173575 -0.097965576
-0.063495375 -0.15101801 -0.11644683 0.04417848 -0.07603577 -0.08763869 -0.15317428 -0.13356107
-0.07460913 -0.011957049 -0.02779286 -0.16127683 -0.04890584 -0.0038247614 -0.11034128 -0.0641661
-0.08671365 -0.043355715 -0.10270056 -0.020843593 -0.15243609 -0.039022554 -0.15598723 -0.10908701
-0.033029284 -0.10069699 -0.11356619 -0.092691824 -0.0856327 -0.080532365 -0.034794398 -0.14270742
-0.11763102 -0.015947113 -0.050561573 -0.045002844 -0.15868673 -0.039052073 -0.07060363 -0.041387912
-0.007955392 -0.07244782 -0.06682989 -0.087107725 0.005513937 -0.07575401 -0.20532571 -0.07729486
-0.12555248 -0.1699996 0.033957813 0.37642866 0.22486518 -0.050837792 -0.15472183 -0.022930851
0.038642734 0.052557867 -0.25304464 0.060624447 -0.008221006 0.86645263 -0.18742311 -0.504521
-0.65147537 -0.3863287 0.35998046 -0.04398894 -0.088432215 0.19381554 -0.16361828 -0.38000956
-0.2748085 -0.021875447 0.37131608 0.13495402 -1.6454415 -0.90927404 -0.5331214 -0.29649523
-0.50998724 0.09833901 -0.7953252 -1.7103777 -0.8862359 0.4062949 0.74306405 -0.06230927
-0.11647486 -0.3099106 -0.21717313 0.14041585 0.059711844 0.37711462 0.31601375 0.29592216
0.230133 0.311449 0.009744397 -0.099368885 0.33128765 0.0282537 0.22504763 0.21350953
0.22459729 0.5878734 -0.60637397 -0.4582563 0.14117093 0.19443592 -0.48389688 -0.5167279
-0.84703594 -1.4467301 -1.5573299 -1.720751 0.18566774 -0.061212286 -0.56718737 -0.29712301
0.064198494 0.2521739 0.015307042 0.4811768 0.709631 0.02741499 0.47250095 0.3506538
0.7149107 0.34038076 -0.18509226 -0.66167533 -0.6139275 -0.3026841 -0.73197 -0.22835186
-0.5594825 -1.0023149 -1.3844557 -0.40359667 -0.06611564 0.067648776 0.6680922 0.007903959
-0.2625722 -0.3666027 -0.06230065 -4.2622793e-05 0.8088156 1.0240289 0.8283366 -1.4895958
00000000: 5a93 c2bd b950 2ebb 2055 bcbd 6766 1dbd
00000010: 8dd3 eabd f342 e9bc 452b 153c 1371 94bd
00000020: 71d2 373d 90f9 a13a a3ca 3abc 8a99 b63c
00000030: d7ee 05be 076d 6cbd aa05 083d 4aa0 a4bd
00000040: 8dc8 c4bc 9af0 50bd 13cc ecbc 3406 96bd
00000050: 1664 b3bb 7384 26bc cb6a a6bd a128 10bd
00000060: afb1 a6bd 54c6 6fbe b9ee 9bbe c4dd 06be
00000070: 72fb e9bd 6aa9 13be 846a 69be 19a9 8dbe
00000080: 6116 82be 4b82 23be bf95 873c a4cc d2bd
00000090: c9f3 4dbd 79bd efbd 49a0 98bd 6c82 b3bd
000000a0: 8855 38bd ffe8 49bd df96 54bc 8d40 bdbd
000000b0: b01d 77bc 517b 1cbe 123b c2bd 1ac8 bcbd
000000c0: 1020 fd3c a2f6 1cbe 5152 1dbe ed7c 31bd
000000d0: ac4a 9ebd 1a4f 42bd b063 6cbd e3a6 fbbb
000000e0: ee81 783c 433f bfbd 6b32 293d d8d7 0abe
000000f0: d67a a03c fbcf 1fbe db1f 343d f07c d03c
00000100: 4e3b 8dbc 4776 05be 6875 96bd bebc 64bd
00000110: 2ff6 48bb f484 53be b583 b3bd ddef 10be
00000120: fc16 6bbc f226 d4bd 96d9 e4bd df65 ecbc
00000130: ba8c b1bd dcbd 6f3d 4e71 13be 4575 38bc
00000140: 6c05 9c3c ade6 42bd 4ef9 b7bd bef6 cfbc
00000150: 5ffb 33bd 83d2 a1ba aa4d bbbc 837c 46bd
00000160: c2e7 c4bd 7478 0bbe 975c 26bb d2e4 4abd
00000170: 0a17 0bbe 1467 aabc 4328 9abd 44e1 b9bd
00000180: 8508 03bd 55e7 943b c02a c5bc 2ca3 69be
00000190: 9ee4 d3bd ece6 c1bc 6cfd eebc 2da2 c8bd
000001a0: dd09 82bd 77a4 1abe ad7b eebd 7ef4 343d
000001b0: a4b8 9bbd ea7b b3bd b8d9 1cbe 3cc4 08be
000001c0: accc 98bd 80e7 43bc daad e3bc c125 25be
000001d0: 7d51 48bd d9a8 7abb 9cfa e1bd 8469 83bd
000001e0: ed96 b1bd c395 31bd ac54 d2bd 2fc0 aabc
000001f0: 3518 1cbe 1dd6 1fbd 1ebb 1fbe 0369 dfbd
00000200: b749 07bd 393a cebd 6495 e8bd 36d5 bdbd
00000210: 3260 afbd 27ee a4bd 9284 0ebd e521 12be
00000220: 88e8 f0bd 85a3 82bc a719 4fbd e754 38bd
00000230: c67e 22be 11f5 1fbd a398 90bd 5f86 29bd
00000240: 5557 02bc 865f 94bd 1cde 88bd 8965 b2bd
00000250: 42ae b43b eb24 9bbd e740 52be c44c 9ebd
00000260: d490 00be 6014 2ebe 5917 0b3d 42bb c03e
00000270: 0f43 663e 4a3b 50bd 666f 1ebe 7bd9 bbbc
00000280: d847 1e3d eb46 573d 118f 81be 5751 783d
00000290: 66b1 06bc d7cf 5d3f d8eb 3fbe 4a28 01bf
000002a0: 17c7 26bf e0cc c5be 5c4f b83e bf2d 34bd
000002b0: f31b b5bd 9577 463e 8d8b 27be 9d90 c2be
000002c0: b3b3 8cbe 2334 b3bc 241d be3e 6331 0a3e
000002d0: d49d d2bf 2fc6 68bf a57a 08bf 39ce 97be
000002e0: 868e 02bf f665 c93d 6f9a 4bbf a8ed dabf
000002f0: 5be0 62bf e305 d03e 7239 3e3f 0138 7fbd
00000300: 5f8a eebd 9aac 9ebe a262 5ebe 2cc9 0f3e
00000310: 6894 743d 2b15 c13e 8ecc a13e 1c83 973e
00000320: fca7 6b3e 3e76 9f3e f7a6 1f3c ea81 cbbd
00000330: 899e a93e 4e74 e73c e372 663e 3ea2 5a3e
00000340: d5fc 653e df7e 163f 533b 1bbf 92a0 eabe
00000350: 1d8f 103e 361a 473e 55c1 f7be 4848 04bf
00000360: 59d7 58bf 742e b9bf 9656 c7bf 9241 dcbf
00000370: af1f 3e3e bcb9 7abd 3133 11bf 8220 98be
00000380: 807a 833d f01c 813e 63ca 7a3c ce5c f63e
00000390: 61aa 353f 6795 e03c a5eb f13e e588 b33e
000003a0: 6304 373f 6346 ae3e d388 3dbe 8e63 29bf
000003b0: 5a2a 1dbf 69f9 9abe 6362 3bbf 12d5 69be
000003c0: 3f3a 0fbf db4b 80bf d835 b1bf 39a4 cebe
000003d0: a367 87bd 718b 8a3d 1708 2b3f 9b7f 013c
000003e0: dd6f 86be 59b3 bbbe f72e 7fbd e0c5 32b8
000003f0: 8a0e 4f3f 6113 833f de0d 543f 13ab bebf

conv2.bias f4 [16]
-0.14737307 -0.46297374 -0.22815864 0.33443028 -0.066657074 -0.08116772 0.1631767 -0.18876542
0.16457473 -0.14867806 -0.09557084 0.2266114 -0.28022912 -0.033838604 -0.14488257 -0.40722752
00000000: f7e8 16be e50a edbe 6ba2 69be 723a ab3e
00000010: 8183 88bd 433b a6bd cb17 273e b94b 41be
00000020: 4786 283e 103f 18be a5ba c3bd d20c 683e
00000030: 317a 8fbe 599a 0abd 195c 14be 2080 d0be

fc1.weight f4 [120, 400]
0.05203494 0.048631757 0.077102795 0.021240644 0.076642945 0.01890869 0.056136247 -0.07250349
0.054130502 -0.03578618 -0.11470094 -0.0757458 -0.105693154 0.06750421 -0.07018167 -0.052001942
0.049650904 -0.036445785 -0.040953197 -0.024705945 -0.0036936156 -0.05272538 -0.04692486 -0.051688228
-0.0808406 0.11347683 0.267314 0.01079734 -0.8946037 -0.760759 -0.57633936 -0.28627118
0.4074618 0.068294436 -0.6247139 -0.23784214 -0.7628283 0.11131549 -0.39440495 0.91342735
-0.0041985065 -1.6902514 -1.3359967 0.16264515 0.79600066 -0.74024284 -1.3833723 -1.2124109
-1.2022872 -1.3894582 -0.72016007 -0.9338747 0.025422642 0.48639902 0.26773128 -0.070259
-0.3321533 -0.22368637 0.46563056 0.35629362 -0.60499054 -0.6682866 -0.636747 -0.2508418
-0.046974577 0.31345803 0.09981051 0.021363195 0.15187824 -0.7108883 0.121087536 -0.7503865
0.24776272 -0.547149 -1.4848876 -0.51294243 0.48805922 0.02445572 -0.21418986 0.53505325
0.27084327 0.3162697 -1.2476848 0.041986547 0.14508408 0.5075612 -0.4645444 -0.30559504
0.23735902 -0.8149517 -1.1303011 0.22552268 -0.09017864 -0.39030233 -0.9135245 0.77306116
0.28885743 -0.20998032 -0.592864 -0.93416214 -0.07315177 -0.0054971823 0.08807249 0.004502036
-0.08332331 0.023894079 0.07455684 0.0553611 0.029450066 0.06847266 -0.016588226 -0.068949014
0.054519895 -0.13761365 -0.14170825 -0.08377604 -0.003814753 0.12100284 -0.15333983 -0.06799036
-0.0145136295 -0.054511532 0.003648287 -0.021325847 -0.10593326 -0.047372594 -0.092479035 -0.03178765
-0.030544616 -0.020775007 -0.03874138 -0.11209101 -0.0014887829 -0.035363633 0.008128855 -0.10023562
-0.07039935 -0.060706973 -0.08463113 -0.007118074 -0.03911487 -0.07666471 -0.040590722 -0.060801838
-0.07016789 0.005711385 -0.11367619 0.005395037 -0.034283906 -0.0010610975 0.5288902 0.45276463
0.4125324 0.2584969 0.44630167 1.0220107 0.09134733 -0.43108034 0.30421418 -0.4701135
-0.53067064 -0.45120853 -0.027522068 0.09026909 0.068286024 0.034241326 0.037362665 -0.61383665
-0.078798465 -0.1512537 -0.5439961 -1.3684769 -0.98877096 -0.17637934 -0.5418237 0.014178812
-0.054351564 -0.029288204 -0.028722236 -0.071507886 0.06823925 0.06472406 0.06584174 0.09163621
-0.05689179 0.026135553 -0.057872243 -0.019332914 -0.11495585 -0.0043398463 -0.10079922 -0.12395074
-0.05317195 -0.034682795 -0.043342948 -0.08678008 -0.05488933 -0.018584317 -0.10293634 -0.085888386
-0.57976943 0.21494617 -0.021109954 0.39785406 0.12638889 -0.5060672 -0.48431218 -0.07909586
0.031162126 -0.006875022 -1.1028852 -0.39168924 0.5049634 0.3051093 0.7154475 -0.31628996
0.6835035 -0.25882947 -0.591151 -0.713099 0.027353605 -0.67848366 0.0779015 0.37666646
-0.778128 -0.003642104 -0.036700524 0.029891584 0.057963114 -0.01780454 -0.11807533 -0.04259871
-0.012546688 0.12626395 0.039220273 -0.09565033 -0.117880605 -0.024954434 -0.07217102 -0.040626492
-0.076067165 -0.064700685 -0.09751942 -0.075917706 -0.11552515 0.06753291 -0.069015585 -0.07617628
-0.094433814 -0.10389835 0.06301026 0.08852652 0.033292707 0.014853999 -0.100684345 0.08349745
00000000: 9722 553d 1832 473d 12e8 9d3d dc00 ae3c
00000010: faf6 9c3d 66e6 9a3c 1fef 653d b67c 94bd
00000020: f2b7 5d3d 8894 12bd 54e8 eabd 9d20 9bbd
00000030: a775 d8bd a63f 8a3d 68bb 8fbd fdff 54bd
00000040: bf5e 4b3d 2d48 15bd 8abe 27bd 1f64 cabc
00000050: 9610 72bb 91f6 57bd 4834 40bd 09b7 53bd
00000060: c28f a5bd 8a66 e83d 61dd 883e 54e7 303c
00000070: c004 65bf 1ac1 42bf fa8a 13bf 2392 92be
00000080: d59e d03e f4dd 8b3d 40ed 1fbf e48c 73be
00000090: b748 43bf 60f9 e33d 72ef c9be 60d6 693f
000000a0: a093 89bb 285a d8bf f101 abbf 738c 263e
000000b0: b3c6 4b3f 8e80 3dbf 5812 b1bf 4830 9bbf
000000c0: 8ce4 99bf c4d9 b1bf 695c 38bf 6a12 6fbf
000000d0: 2543 d03c 4b09 f93e 1314 893e f3e3 8fbd
000000e0: ff0f aabe 0a0e 65be 2167 ee3e 1e6c b63e
000000f0: a9e0 1abf d514 2bbf da01 23bf 566e 80be
00000100: 6a68 40bd 927d a03e 7469 cc3d de01 af3c
00000110: f885 1b3e c7fc 35bf befc f73d 5419 40bf
00000120: 83b5 7d3e f511 0cbf cc10 bebf 3250 03bf
00000130: e6e2 f93e 5d57 c83c 9654 5bbe 40f9 083f
00000140: f8ab 8a3e 1aee a13e 23b4 9fbf 16fa 2b3d
00000150: ec90 143e 88ef 013f c3d8 edbe f476 9cbe
00000160: 3e0e 733e ada0 50bf b5ad 90bf 6bef 663e
00000170: 94af b8bd b5d5 c7be bedc 69bf 56e7 453f
00000180: 1fe5 933e 1505 57be efc5 17bf 4025 6fbf
00000190: 98d0 95bd b521 b4bb 5a5f b43d d185 933b
000001a0: 69a5 aabd 84bd c33c 42b1 983d 52c2 623d
000001b0: 4441 f13c 653b 8c3d 08e4 87bc 2435 8dbd
000001c0: 4150 5f3d 98ea 0cbe f81b 11be c692 abbd
000001d0: ef00 7abb 56d0 f73d 1e05 1dbe 883e 8bbd
000001e0: 93ca 6dbc 7c47 5fbd 1918 6f3b 8bb3 aebc
000001f0: 89f3 d8bd c409 42bd a665 bdbd c433 02bd
00000200: b438 fabc 5930 aabc 48af 1ebd f98f e5bd
00000210: 4423 c3ba 75d9 10bd e42e 053c 5548 cdbd
00000220: 892d 90bd e0a7 78bd 1653 adbd bc3e e9bb
00000230: ea36 20bd 6302 9dbd 7542 26bd 590b 79bd
00000240: 2fb4 8fbd 9226 bb3b 10cf e8bd dac8 b03b
00000250: 486d 0cbd 8614 8bba 5965 073f c4d0 e73e
00000260: 7237 d33e b559 843e a781 e43e 3fd1 823f
00000270: 4f14 bb3d 90b6 dcbe f6c1 9b3e b7b2 f0be
00000280: 08da 07bf ce04 e7be f675 e1bc 00df b83d
00000290: 8bd9 8b3d a240 0c3d 9809 193d 6624 1dbf
000002a0: 1761 a1bd 40e2 1abe 5443 0bbf 402a afbf
000002b0: 1820 7dbf c99c 34be f5b4 0abf 3f4e 683c
000002c0: bf9f 5ebd d1ed efbc e54a ebbc ba72 92bd
000002d0: 05c1 8b3d 0c8e 843d 09d8 863d c4ab bb3d
000002e0: 5e07 69bd 3a1a d63c 720b 6dbd 0f60 9ebc
000002f0: f96d ebbd 4535 8ebb d26f cebd e3d9 fdbd
00000300: d5ca 59bd 8c0f 0ebd 6088 31bd c1b9 b1bd
00000310: a2d3 60bd 233e 98bc 4ad0 d2bd 40e6 afbd
00000320: c56b 14bf d91a 5c3e c8ee acbc 87b3 cb3e
00000330: 176c 013e 9f8d 01bf c4f7 f7be 03fd a1bd
00000340: b747 ff3c dd47 e1bb 582b 8dbf 7e8b c8be
00000350: 4845 013f 4937 9c3e 9127 373f c2f0 a1be
00000360: 16fa 2e3f 4c85 84be ac55 17bf a88d 36bf
00000370: ab14 e03c 1bb1 2dbf d28a 9f3d 6dda c03e
00000380: 6633 47bf 5eb0 6ebb 4a53 16bd 32df f43c
00000390: bb6a 6d3d d4da 91bc 7bd1 f1bd fc7b 2ebd
000003a0: a090 4dbc 564b 013e 70a5 203d 52e4 c3bd
000003b0: 636b f1bd 3e6d ccbc 66ce 93bd f767 26bd
000003c0: 1ac9 9bbd cb81 84bd 43b8 c7bd be7a 9bbd
000003d0: 7398 ecbd b24e 8a3d 0b58 8dbd 4f02 9cbd
000003e0: 8466 c1bd a8c8 d4bd 860b 813d 644d b53d
000003f0: ef5d 083d 305e 733c 9833 cebd b600 ab3d

fc1.bias f4 [120]
0.12070812 -0.18991779 -0.072926566 -0.36478484 -0.10415362 0.44713297 0.008135907 -0.074007094
-0.4371975 -0.10650135 -0.107617006 0.6415475 -0.059699304 -0.436488 -0.5090441 0.5189213
-0.6227224 -0.4439011 -0.11355227 -0.089944676 0.249309 0.079178214 -0.30226144 -0.13120088
-0.8276316 -0.2278872 -0.08310753 -0.39195243 -0.17805752 -0.097152345 -0.06871402 -0.41290852
-0.6599258 -0.022314936 -0.51150197 -0.107845746 -0.077308856 0.79742146 -0.058014005 -0.0041972315
-0.3440373 -0.035505798 -0.30627027 -0.035081718 -0.036373585 -0.03773916 -0.064408466 -0.8350445
-0.010945068 -0.025265163 -0.49158967 -0.080418706 -0.08924285 -0.099324316 -0.037709396 0.058282357
-0.21681814 -0.28553975 0.26731157 -0.6697825 -0.11342681 -0.22963151 -0.08186353 -0.035405423
-0.099734515 -0.008897096 -0.014673233 0.20299192 -0.03854287 0.20693214 -0.16421911 -0.04188186
-0.2812041 0.14518553 -0.23206857 -0.29471597 -0.113823876 0.7973398 -0.36364117 -0.3017028
-0.078308634 -0.1057413 -0.018612612 -0.60035706 -0.0018674202 -0.21001801 -0.007956994 -0.3331567
0.039063245 -0.117934205 -0.04437944 -0.10904348 -0.30425948 -0.2176507 -0.066858776 -0.03382545
-0.42400393 -0.652845 -0.18242045 -0.062106032 -0.6025638 -0.30164677 -0.04162378 -0.09581378
-0.66143525 -0.049023677 -0.03460045 -0.748627 -0.16496716 -0.4469179 -0.012502339 -0.08630457
-0.043186836 -0.04139182 -0.118425265 -0.329669 0.36952916 -0.41405845 -0.63337404 -0.25059262
00000000: d235 f73d cf79 42be 865a 95bd 14c5 babe
00000010: 7e4e d5bd 9dee e43e 784c 053c 0891 97bd
00000020: 5ad8 dfbe 611d dabd 4e66 dcbd 753c 243f
00000030: 4287 74bd 5b7b dfbe b750 02bf 07d8 043f
00000040: bc6a 1fbf 0147 e3be 188e e8bd ea34 b8bd
00000050: dc4a 7f3e 3028 a23d 03c2 9abe 8659 06be
00000060: aadf 53bf 435b 69be 4834 aabd fdad c8be
00000070: b654 36be cff7 c6bd f0b9 8cbd bf68 d3be
00000080: e6f0 28bf d0cd b6bc cbf1 02bf 3bde dcbd
00000090: 1b54 9ebd d023 4c3f 18a0 6dbd ee88 89bb
000000a0: a825 b0be 876e 11bd 75cf 9cbe d9b1 0fbd
000000b0: 78fc 14bd 6194 1abd 96e8 83bd 7ac5 55bf
000000c0: f152 33bc e3f8 cebc a4b1 fbbe 90b2 a4bd
000000d0: f5c4 b6bd 8c6a cbbd 2b75 1abd 7bb9 6e3d
000000e0: 9305 5ebe 4432 92be 10dd 883e de76 2bbf
000000f0: 514c e8bd 8624 6bbe 11a8 a7bd 4705 11bd
00000100: 9c41 ccbd 20c5 11bc 0068 70bc 1ddd 4f3e
00000110: 21df 1dbd 05e6 533e 0e29 28be 508c 2bbd
00000120: fcf9 8fbe 84ab 143e 62a3 6dbe 03e5 96be
00000130: 7e1c e9bd 761e 4c3f 2d2f babe ca78 9abe
00000140: 4760 a0bd e58e d8bd 7a79 98bc 00b1 19bf
00000150: 39c4 f4ba f60e 57be 0d5e 02bc 8493 aabe
00000160: c800 203d 7d87 f1bd 37c7 35bd 3052 dfbd
00000170: e6c7 9bbe d3df 5ebe 41ed 88bd 8e8c 0abd
00000180: 0b17 d9be da20 27bf 6dcc 3abe e562 7ebd
00000190: 9f41 1abf 7271 9abe b27d 2abd 043a c4bd
000001a0: d253 29bf 0dcd 48bd 34b9 0dbd 05a6 3fbf
000001b0: 27ed 28be 6cd2 e4be 9cd6 4cbc 73c0 b0bd
000001c0: aee4 30bd 788a 29bd f288 f2bd 60ca a8be
000001d0: ed32 bd3e 78ff d3be cd24 22bf ad4d 80be

fc2.weight f4 [84, 120]
-0.5611701 -0.094129324 -0.06111541 -0.40075475 -0.14337212 -0.18551916 -0.022887142 -0.119118266
-0.4564662 0.023361057 -0.9078506 0.30824295 0.0070987497 0.29442307 -0.11622414 -0.12674804
0.6227333 -0.39696652 0.003706492 0.03722788 -0.4687852 -0.18153432 -0.34041893 0.07811047
-0.1570286 -0.69710225 -0.08165595 -0.76608807 -0.02103734 -0.05966449 0.052503243 0.15721385
-0.22733855 -0.022721305 -0.81091666 0.049829677 0.009212397 0.318316 0.05655648 -0.030110491
-0.4161381 -0.03630088 -1.1242061 -0.06691302 -0.012544853 -0.1006846 -0.5167688 -0.4252384
-0.22555763 0.065834194 -0.18976991 0.06617522 -0.030769814 -0.03710682 0.024402596 -0.6837562
-0.16872248 -0.010451627 -0.74533796 0.120949164 0.03099513 0.024903761 -0.062116373 -0.1243921
-0.0735981 -0.11260375 -0.078496136 -0.5102452 -0.043259025 0.2156191 0.052080348 -0.025194801
-0.14217569 -0.29031658 0.15941763 -0.5772533 0.05011859 -0.51938623 -0.22147198 -0.72883385
0.028627299 0.083769605 -0.032637198 -0.494621 0.016097203 -0.060567316 -0.26150003 0.07717916
0.023225648 -0.09028554 -0.05440787 -0.010382585 -0.23756096 -0.32713434 -0.10759943 -0.012378909
-0.5160938 -0.35809797 -0.048976272 -0.735502 0.32575357 -0.35836428 -0.07467887 0.06654516
0.42649257 -0.41141897 -0.061205257 -0.18682131 -0.0069212774 -0.35264483 0.08906701 0.019879892
-0.39011666 -0.002983503 -0.07698563 -0.023172993 -0.5124131 -0.0456181 -0.6082384 -0.22117946
-0.21881038 -0.03364932 -0.05309371 0.09559633 0.21151507 -1.0302474 -0.017249756 0.03178853
-0.38645726 -0.0081520155 -0.35959587 -0.78118646 0.11890751 -0.26322442 -0.0014749698 -0.52724576
-0.8893016 -0.572972 0.052672107 -0.031461995 0.33197227 -0.16102274 0.20379955 -0.080784425
-0.3923694 0.4197553 0.021331958 0.15144858 -0.040854014 0.023488887 0.011677321 0.29380915
-0.20403327 0.02741059 0.16216853 0.048937052 -0.002432175 -0.67345256 0.06989324 -0.14828569
-0.3017228 -0.06293675 -0.098227836 -0.008482814 -0.0706456 0.06939894 -0.6442917 -0.72972333
-0.4450124 -0.06826921 0.39748296 -0.033987287 0.010218613 0.08985767 0.046539485 -0.49189025
-0.21592045 0.32585302 -0.6106525 -0.14061847 -0.1444225 0.07417714 0.04552891 0.07274324
0.033068508 0.013248478 -0.029476281 -0.30931708 0.017247431 -0.6952118 0.3087786 -0.041762266
-0.031095453 -1.2543911 -0.28467903 -0.045150757 -0.52930564 -0.235707 -0.23461056 -0.3991187
0.07966945 -0.073345385 0.02239668 -0.54865354 -0.02012397 -0.026984895 -0.03882837 -0.2337033
0.041945003 0.13568707 -0.030470632 0.059193075 -0.2638527 -0.19410579 -0.20354316 -0.0057833567
0.61301404 -0.38227144 -0.54929566 -0.067354515 0.2770391 -0.39533237 -0.027538389 -0.024401598
-0.119064294 -0.11233777 0.053048298 0.4922874 -0.17036942 -0.207515 -0.055494122 -0.045059398
-0.25763258 -0.088482775 -0.02554799 -0.5619833 -0.022406913 -0.43916783 -0.2045172 0.15045153
-0.12988698 -0.3031967 0.12343745 0.13458395 -0.19404213 -0.15565024 -0.021247763 0.077226385
-0.028100967 0.028304596 -0.25521755 -0.30880615 0.034781627 -0.14402115 -0.53417987 -0.10541448
00000000: d8a8 0fbf e0c6 c0bd 2754 7abd ba2f cdbe
00000010: 24d0 12be bcf8 3dbe d17d bbbc 47f4 f3bd
00000020: f0b5 e9be b05f bf3c e668 68bf 05d2 9d3e
00000030: a19c e83b 9fbe 963e ec06 eebd 3dca 01be
00000040: 736b 1f3f 323f cbbe 9ee8 723b 437c 183d
00000050: 9d04 f0be 22e4 39be 644b aebe 62f8 9f3d
00000060: 1bcc 20be 4b75 32bf 3c3b a7bd 591e 44bf
00000070: 8056 acbc c162 74bd a40d 573d abfc 203e
00000080: 70cb 68be 0822 babc 3c98 4fbf 341a 4c3d
00000090: 98ef 163c 51fa a23e c4a7 673d 47aa f6bc
000000a0: 0e10 d5be 3bb0 14bd fce5 8fbf b209 89bd
000000b0: ed88 4dbc ba33 cebd f64a 04bf d9b8 d9be
000000c0: 94f8 66be 14d4 863d 0b53 42be e086 873d
000000d0: fa10 fcbc 52fd 17bd f4e7 c73c a50a 2fbf
000000e0: 96c5 2cbe 4d3d 2bbc 78ce 3ebf 32b4 f73d
000000f0: 80e9 fd3c f902 cc3c bd6d 7ebd 49c1 febd
00000100: 9aba 96bd cb9c e6bd 95c2 a0bd 6e9f 02bf
00000110: 6030 31bd 41cb 5c3e 3452 553d 5465 cebc
00000120: 8196 11be 60a4 94be 603e 233e dfc6 13bf
00000130: 2749 4d3d 7ff6 04bf 8dc9 62be db94 3abf
00000140: cc83 ea3c 668f ab3d 95ae 05bd f73e fdbe
00000150: 48de 833c 6f15 78bd 55e3 85be 1c10 9e3d
00000160: b743 be3c a0e7 b8bd c9da 5ebd b81b 2abc
00000170: 2e43 73be 277e a7be 175d dcbd e8d0 4abc
00000180: b91e 04bf 9e58 b7be 589b 48bd dc49 3cbf
00000190: 2cc9 a63e 867b b7be 3cf1 98bd d448 883d
000001a0: 3c5d da3e 82a5 d2be 5db2 7abd 164e 3fbe
000001b0: e2cb e2bb dd8d b4be c468 b63d 28db a23c
000001c0: 5fbd c7be e086 43bb a4aa 9dbd 4ad5 bdbc
000001d0: 812d 03bf 0bda 3abd 83b5 1bbf de7c 62be
000001e0: d40f 60be dfd3 09bd ca78 59bd 02c8 c33d
000001f0: 6897 583e 26df 83bf 5c4f 8dbc b134 023d
00000200: badd c5be 0890 05bc f31c b8be d6fb 47bf
00000210: c885 f33d 5ac5 86be c653 c1ba 94f9 06bf
00000220: 45a9 63bf 4bae 12bf b5be 573d 4bde 00bd
00000230: 45f8 a93e 25e3 24be d4b0 503e 4e72 a5bd
00000240: a4e4 c8be 2bea d63e 5cc0 ae3c 5615 1b3e
00000250: 8a56 27bd c46b c03c 3c52 3f3c 276e 963e
00000260: 19ee 50be 2c8c e03c 820f 263e 3872 483d
00000270: 2065 1fbb 6367 2cbf 3024 8f3d 34d8 17be
00000280: 697b 9abe fce4 80bd ad2b c9bd 80fb 0abc
00000290: a4ae 90bd 0821 8e3d 4df0 24bf 26cf 3abf
000002a0: aad8 e3be bad0 8bbd e382 cb3e 4136 0bbd
000002b0: f86b 273c 4c07 b83d 30a0 3e3d 0ad9 fbbe
000002c0: 401a 5dbe 35d6 a63e b953 1cbf 4afe 0fbe
000002d0: 7ee3 13be 2fea 973d 867c 3a3d 68fa 943d
000002e0: d872 073d 2510 593c 3e78 f1bc cf5e 9ebe
000002f0: 7c4a 8d3c 67f9 31bf 3b18 9e3e e90e 2bbd
00000300: e4bb febc e38f a0bf 73c1 91be 00f0 38bd
00000310: 9380 07bf 2d5d 71be c03d 70be 4959 ccbe
00000320: bd29 a33d 1b36 96bd 3e79 b73c 8f74 0cbf
00000330: 06db a4bc 6d0f ddbc 7f0a 1fbd eb4f 6fbe
00000340: 86ce 2b3d 8df1 0a3e 8c9d f9bc 7074 723d
00000350: b317 87be abc3 46be 9e6d 50be 5082 bdbb
00000360: 7dee 1c3f 15b9 c3be a49e 0cbf 2af1 89bd
00000370: 12d8 8d3e 0169 cabe 3098 e1bc dce5 c7bc
00000380: fbd7 f3bd 5811 e6bd 2c49 593d 180d fc3e
00000390: 5275 2ebe d07e 54be ce4d 63bd 3490 38bd
000003a0: 6be8 83be 7536 b5bd 054a d1bc 23de 0fbf
000003b0: b48e b7bc 9bda e0be f56c 51be f70f 1a3e
000003c0: 1801 05be 993c 9bbe c6cc fc3d 60d0 093e
000003d0: fbb2 46be c762 1fbe ca0f aebc de28 9e3d
000003e0: 0034 e6bc 0adf e73c e0ab 82be d71b 9ebe
000003f0: 2e77 0e3d 487a 13be 03c0 08bf 8ce3 d7bd

fc2.bias f4 [84]
-1.3627958 0.071427524 -0.30028492 -0.3714783 -0.4539209 -0.8746457 -0.45569524 -1.2549791
0.06476631 -0.24612701 -0.3334157 -1.0945363 -0.76879567 -0.48061126 0.78980505 -0.84699154
-0.4658972 -0.118911944 -0.18222731 -1.0971212 -0.5105252 -0.48636577 -0.05842602 -1.2442617
-0.43641004 -0.78479743 0.25293416 -1.034115 -0.8079988 0.41669708 -1.3992593 0.44762748
-0.24573436 -0.06462583 -0.1939308 -0.17044866 -0.11386982 0.40631554 -0.48787087 -0.95994097
0.3187238 -0.88154006 -0.7882354 -0.6525992 -0.8938771 -0.86251235 -1.1575726 -0.11546652
-0.10241325 -0.747349 -0.5368454 -0.49611428 -0.3726331 -1.2260343 -0.43840936 0.27752295
-1.0250902 -1.1816114 -0.42195392 -0.6843035 0.59439653 0.549648 -0.5341762 -0.16003644
-0.43244508 -0.80553806 -0.26305246 -0.46387866 -1.4400841 -0.7556823 -0.8433292 -0.78431726
-0.20785095 1.3548584 -0.44512638 -0.69325846 -0.020259615 -0.5864576 0.83927864 -0.4385739
-0.6941444 0.17818257 -0.5258036 -0.447188
00000000: 1870 aebf 9848 923d f2be 99be 6732 bebe
00000010: 5268 e8be c8e8 5fbf e350 e9be 28a3 a0bf
00000020: 33a4 843d b808 7cbe 76b5 aabe c419 8cbf
00000030: cbcf 44bf ae12 f6be aa30 4a3f 70d4 58bf
00000040: 148a eebe 1b88 f3bd cc99 3abe 786e 8cbf
00000050: c8b1 02bf ef04 f9be 1f50 6fbd f843 9fbf
00000060: 2371 dfbe 7ce8 48bf 9680 813e e15d 84bf
00000070: 02d9 4ebf 5259 d53e ee1a b3bf 6e2f e53e
00000080: caa1 7bbe 8c5a 84bd cc95 46be 188a 2ebe
00000090: 9534 e9bd 9708 d03e 36ca f9be b1be 75bf
000000a0: c42f a33e 9cac 61bf ccc9 49bf be10 27bf
000000b0: 21d5 64bf 9ccd 5cbf 572b 94bf b679 ecbd
000000c0: 0abe d1bd 4452 3fbf b36e 09bf b102 febe
000000d0: c4c9 bebe b1ee 9cbf 3177 e0be 7d17 8e3e
000000e0: 2836 83bf 0b3f 97bf 580a d8be 842e 2fbf
000000f0: 5f2a 183f bbb5 0c3f c5bf 08bf 98e0 23be
00000100: 7169 ddbe be37 4ebf d0ae 86be 8181 edbe
00000110: ad54 b8bf 6574 41bf 6ce4 57bf 04c9 48bf
00000120: e1d6 54be 006c ad3f 9be7 e3be 6379 31bf
00000130: 7ef7 a5bc 1622 16bf f7da 563f c28c e0be
00000140: 73b3 31bf 7e75 363e 119b 06bf d3f5 e4be

fc3.weight f4 [10, 84]
-0.23455729 0.047188506 -0.14687677 0.11031006 0.025851136 0.15022716 0.2012747 -0.13543765
-0.031945627 -0.4793721 -0.2650909 -0.41941103 0.14860678 -0.11017276 -0.13136205 -0.05349073
0.21183491 -0.0789804 0.008353226 -0.067424804 -0.15735145 -0.1762419 -0.049273554 0.13090807
-0.00963122 -0.097688735 -0.034051094 -0.32728344 0.15504608 -0.15334707 -0.31869724 -0.2037024
-0.11799051 -0.19116859 -0.05343188 -0.41448578 -0.12381064 -0.23839915 -0.0649094 -0.69405246
-0.022147622 0.09599274 -0.07981675 -1.5540333 -1.4597797 0.011632534 0.071429215 -0.07613312
0.016311245 -0.13461798 -0.38592488 0.17917079 0.15819776 -0.20731455 0.06205684 0.011902889
-0.6386135 -0.13575456 0.006047333 -0.21578054 -0.32835186 -0.27508005 -0.14311421 -0.008820746
-0.15111709 0.03483848 0.12044441 0.10695393 -0.101074174 -0.18420775 -0.34626547 -0.10975773
-0.009235293 -0.102191955 0.37747312 0.1144873 -0.1288076 -0.035279408 -0.18717463 -0.0017314943
-0.31835032 -0.32848555 -0.17741789 0.07565227 -0.20829938 -0.35124037 -0.0738661 -0.17913282
0.26042706 0.15586689 -0.30567136 -0.7455294 0.2672663 -0.26874635 0.09859956 -0.9268492
-0.2138066 -0.03495429 -0.06672351 -0.6500218 -0.28036302 -0.12801062 0.021761479 -0.05164692
-0.020412052 -0.12828918 -0.09846044 -0.32371697 0.12587738 -0.45375833 -0.28178227 0.055901155
-0.1056167 -0.08224741 -0.18763366 -0.21338078 0.05217584 0.10324331 0.059224855 -0.16459784
0.18169007 0.28983402 0.016259512 -0.14398585 -0.122662865 0.034384087 -0.61847025 -0.82427174
-1.159923 -0.16560282 -0.15382256 -0.33315524 0.015833126 0.027556133 -0.13193536 -0.13653053
-0.22090071 -0.55157036 -0.20695919 -0.57729155 -0.11598126 -0.057792038 0.023466764 -0.20740387
0.20344847 -0.18106619 0.0070105954 -0.19166026 -0.08101556 -0.5669556 0.062465247 -0.1641223
-0.20154648 -0.02052644 -0.51180625 -0.5896233 -0.41123497 0.26975608 -0.15020914 -0.5175751
0.07194322 -0.32301533 -0.45762485 -0.34310138 -0.25937578 -0.09347497 -0.122993216 -0.22505459
-0.18195443 -0.060191173 -0.05266718 -0.14352548 -0.42713264 -0.30056283 0.058462437 -0.33111608
-0.23872948 -0.16251393 0.1315784 -0.008760455 -0.19260077 -0.17253794 -0.09784906 -0.030784694
-0.027390495 -0.12317292 0.17914017 -0.23524585 -0.0036094424 -0.24345344 0.19068678 0.06448584
0.050490856 -0.16543688 0.17617632 -0.13606463 -0.07380206 -0.12380023 -0.30447438 -0.26640758
0.2752138 0.117607884 -0.500759 0.046072576 0.23899896 -0.016116824 0.1272815 0.028036725
0.27958488 0.0929927 -0.16388758 -0.5317838 -0.068866566 -0.13737608 -0.018745435 0.09349145
-0.029912408 -0.432787 -0.2454941 0.029657114 0.1769294 -0.5026254 0.17116992 0.00917993
-0.3726041 -0.07175644 0.06323754 -0.60476214 -0.094589666 -0.257918 -0.29631275 0.0950251
-0.3974083 0.09769216 0.14281267 -0.08685476 -0.10537984 -0.18542856 0.13431406 -0.07427734
0.1337478 -0.16338046 0.012669964 -0.14585362 -0.1106702 -0.17789903 0.2317259 -0.30947903
-0.4581085 0.18892737 -0.08102958 0.26246044 0.0057880552 -0.040441286 0.13729052 -0.06247406
00000000: c92f 70be bc48 413d dd66 16be 3eea e13d
00000010: c3c5 d33c 26d5 193e f41a 4e3e 2bb0 0abe
00000020: 6bd9 02bd 4370 f5be ffb9 87be 0bbd d6be
00000030: 602c 183e 42a2 e1bd c683 06be 1819 5bbd
00000040: 40eb 583e 7ac0 a1bd f8db 083c 0416 8abd
00000050: bd20 21be c278 34be 11d3 49bd c40c 063e
00000060: 44cc 1dbc 0811 c8bd 2979 0bbd b291 a7be
00000070: 66c4 1e3e 0407 1dbe 492c a3be 5d97 50be
00000080: 02a5 f1bd b3c1 43be 63db 5abd 7b37 d4be
00000090: 6f90 fdbd e81e 74be 38ef 84bd 6cad 31bf
000000a0: ee6e b5bc d797 c43d f776 a3bd 90ea c6bf
000000b0: 10da babf 6296 3e3c 7b49 923d aeeb 9bbd
000000c0: 299f 853c 4cd9 09be f297 c5be 8c78 373e
000000d0: 98fe 213e 444a 54be 502f 7e3d 5604 433c
000000e0: 2d7c 23bf 3e03 0bbe b528 c63b 93f5 5cbe
000000f0: bc1d a8be 4bd7 8cbe 888c 12be e484 10bc
00000100: 70be 1abe cbb2 0e3d 8fab f63d a90a db3d
00000110: faff cebd f5a0 3cbe b549 b1be a9c8 e0bd
00000120: a04f 17bc 044a d1bd 2844 c13e 5178 ea3d
00000130: 24e6 03be 2481 10bd b5aa 3fbe 4ff3 e2ba
00000140: d0fe a2be 422f a8be 09ad 35be 94ef 9a3d
00000150: 6f4c 55be c7d5 b3be 1c47 97bd 986e 37be
00000160: b256 853e 929b 1f3e f580 9cbe 04db 3ebf
00000170: 21d7 883e 1f99 89be 91ee c93d fd45 6dbf
00000180: 1ef0 5abe 3b2c 0fbd 56a6 88bd d467 26bf
00000190: be8b 8fbe 3715 03be 2145 b23c b98b 53bd
000001a0: 2d37 a7bc 3d5e 03be a1a5 c9bd 3bbe a5be
000001b0: 00e6 003e 0353 e8be c445 90be 9cf8 643d
000001c0: 924d d8bd 5571 a8bd 0a23 40be 7e80 5abe
000001d0: 55b6 553d 3a71 d33d c395 723d 568c 28be
000001e0: f60c 3a3e 2065 943e ab32 853c 0771 13be
000001f0: ab36 fbbd 54d6 0c3d 1154 1ebf 7903 53bf
00000200: 5b78 94bf c993 29be a983 1dbe 5393 aabe
00000210: 79b4 813c 66bd e13c 101a 07be a9ce 0bbe
00000220: cc33 62be b733 0dbf 1ced 53be 61c9 13bf
00000230: 9587 edbd 58b7 6cbd 5f3d c03c ae61 54be
00000240: cc54 503e 6a69 39be 23b9 e53b 9642 44be
00000250: 7ceb a5bd 0124 11bf 8fdb 7f3d ad0f 28be
00000260: 3362 4ebe 1127 a8bc bc05 03bf 8df1 16bf
00000270: 648d d2be 781d 8a3e 6dd0 19be cd7f 04bf
00000280: f856 933d 4462 a5be ce4d eabe fcaa afbe
00000290: e7cc 84be ce6f bfbd dee3 fbbd b674 66be
000002a0: 4352 3abe 058b 76bd 8ab9 57bd 58f8 12be
000002b0: 21b1 dabe 5fe3 99be 4f76 6f3d 0c88 a9be
000002c0: 8075 74be 0d6a 26be 7dbc 063e 0388 0fbc
000002d0: 2339 45be c9ad 30be 1765 c8bd 2f30 fcbc
000002e0: 0862 e0bc 1542 fcbd 8570 373e 4ae4 70be
000002f0: 658c 6cbb dc4b 79be 6543 433e 2711 843d
00000300: 80cf 4e3d 4968 29be 9167 343e 8754 0bbe
00000310: 8925 97bd fa8a fdbd 11e4 9bbe 9366 88be
00000320: d3e8 8c3e 67dc f03d be31 00bf 99b6 3c3d
00000330: 25bc 743e 6e07 84bc 1556 023e 46ad e53c
00000340: c025 8f3e f572 be3d 25d2 27be fc22 08bf
00000350: ea09 8dbd 51ac 0cbe 0790 99bc 7278 bf3d
00000360: de0a f5bc 4296 ddbe ce62 7bbe 7af3 f23c
00000370: fb2c 353e 0fac 00bf 2b47 2f3e 6b67 163c
00000380: f7c5 bebe 0af5 92bd af82 813d b1d1 1abf
00000390: 3ab8 c1bd d40d 84be 4eb6 97be 859c c23d
000003a0: 1a79 cbbe d412 c83d 7c3d 123e e9e0 b1bd
000003b0: 63d1 d7bd fce0 3dbe a089 093e b81e 98bd
000003c0: 2ff5 083e 354d 27be ae95 4f3c a75a 15be
000003d0: 0fa7 e2bd 2a2b 36be 8e49 6d3e 0974 9ebe
000003e0: 338d eabe 2d76 413e d6f2 a5bd 3761 863e
000003f0: baa9 bd3b c3a5 25bd e395 0c3e cde4 7fbd

fc3.bias f4 [10]
-0.07872934 0.24549651 -0.07420796 0.2705739 -0.17729796 -0.4802912 -0.11134685 -0.023548076
0.39773452 -0.13228813
00000000: d93c a1bd 7063 7b3e 58fa 97bd aa88 8a3e
00000010: 998d 35be bae8 f5be d109 e4bd e5e7 c0bc
00000020: dca3 cb3e 8a76 07be
